uniswap_lp_nn_model.onnx (onnx, 35494 bytes, 5 tensors)

0.weight f4 [128, 2]
00000000: d23b a0be 727e af3e b062 7e3d 5e18 3abd
00000010: eeda 213f de29 da3c 5850 38bf 97ea 96bd
00000020: 508a 8c3e 098b 67be 4148 b63e 802f f43e
00000030: 47c6 0abf 9218 a0bd 32fd 013e b4d8 93bf
00000040: 3125 95bd b825 49be ce37 5dbe 624d 19bf
00000050: 31d2 42be 4b3d 75bd dff8 2d3f c536 6bbe
00000060: feaa 3dbe 502f 6c3e ca90 c93e 66f7 29bf
00000070: e3e3 1ebf 4956 68bd 2d74 de3e f9d7 b33e
00000080: abf8 2bbf b4fd 16bf bbb2 bd3e ce8b c63e
00000090: 6184 5bbf ad4d 0f3d dd3d 67bf 83ab c43c
000000a0: a3a3 ad3e 7cc0 823e 1f7a 243f ddc2 d73e
000000b0: 2a3b dd3d a396 94bd da4a 5dbd 5a50 33bf
000000c0: d3bd e23b 3c21 053f 487a 023b def6 c6be
000000d0: d16f ad3d 6876 4cbf 83df 9b3e e64d 00bf
000000e0: 3b7e a6be bba8 27bf 79a6 223f 041e 623e
000000f0: 75d5 b6bb 0071 d2bb b8d7 8ebe 7d76 85be
00000100: 7777 f3be 5c98 cfbc cb37 10be dd4b 17bd
00000110: ec3e f33e 8655 03bf b91a 3a3e fd48 dbbc
00000120: 9acf 483e 2226 1f3d 7b5e 89bc 84b8 acbc
00000130: 4abf 0dbf 7e62 27be 6724 5f3e f099 74be
00000140: 5dcb 0b3f b926 1fbe 8a0b 23bf 503e d43e
00000150: b3db 18bf f0b7 403e 9d34 1ebf 5e9c ae3e
00000160: 7e6b ba3e 4dce bcbd 330e 06bf 00ad 67bf
00000170: 252a 143f deff e4be 1d7c 003f 1de3 713d
00000180: 8fd4 e63e 21d7 a33d 95d1 bdbd 0f77 f93e
00000190: 318c 1cbf 3fc2 3b3e c4e7 26bf 1dce 933e
000001a0: e5d0 dabe ee36 873e fa66 2fbf cd46 c1be
000001b0: 0aca 62be 0863 17bf fbec f63c 14da 083d
000001c0: 1342 d23e ea34 dcbe 07a3 afbd 3c95 84bd
000001d0: 62f6 7b3e 28b8 82be b0de f2bb e6c9 a3bd
000001e0: f5e7 7b3d ebe7 29bf 18cc 0bbf 9b2b 5c3e
000001f0: 0537 eabd 1161 8b3e fa37 debe 3a43 38be
00000200: dab4 08bf b3aa f13d 74d6 033f 7a76 033f
00000210: c6c1 30bf 1475 853d 6e08 f23e f422 4fbf
00000220: 4a3d dc3e c5b8 a3bc 53de e4be e014 143f
00000230: 0323 203d 25d4 9dbd 64d2 27bf 046b 15bf
00000240: 7674 89be b041 16bf 0610 29bf ef4f fb3d
00000250: c909 7fbe cb74 2e3f df88 1c3f 99ba 3cbe
00000260: 5503 823d 6362 b23d 9665 0bbf 61da 113f
00000270: c32c b2bd d363 0fbf f9c0 edbe 6359 9c3d
00000280: 146b a03e ec62 233d c1c9 a5bd d450 293c
00000290: f60b 9c3e c218 55bf 618a 84bd ec1d 93bd
000002a0: 7629 1bbf d125 0e3d 552f c03e 51b8 07bf
000002b0: 0eaf a1be 665a a0bd 1049 9fbe af29 ba3e
000002c0: f0f4 a33d a35d 04bf 45d6 f3be 201a 8abe
000002d0: e7d1 fa3d 01c7 97bf 7f2f 56bd 4432 babc
000002e0: 7cc0 0bbf f689 ce3d f61c f8be 6ed9 e83e
000002f0: 9145 773e 46f9 8abe a536 33bf 0e04 b53e
00000300: f911 89be bef5 b53e c65c 1a3e 8c58 cf3e
00000310: 9daa a73e 0365 b1be 8af1 183e 7363 d43e
00000320: d2cb 15bf 32d3 e13e 98a8 16bf 4bab 263f
00000330: 025f 173f cb83 efbe 4818 eabe 0ad8 d7be
00000340: db08 64bf d352 a53d 2100 cc3e d6b2 163f
00000350: d4d7 34bf 698a 43be 3237 b1be be24 b6bd
00000360: e01e 45bb cf9e 8bbe 4379 6cbe fe27 f73e
00000370: 1481 dd3e 4892 30bd a750 0abd 5491 2e3e
00000380: 9674 663e d641 6fbd dd32 19bf 0d04 abbe
00000390: ac31 cd3e 0e3d 32bf a184 d33e 4de4 c0bd
000003a0: 41cf 5ebe 3aca 58be e973 c8be ed67 20bf
000003b0: d64d b33d 5a92 e03e ea48 e23e c01d 99be
000003c0: 3720 023e f52c e73e 7125 65be 91f8 1d3e
000003d0: 1267 0c3f 140a e0be 6017 fabe 7906 853e
000003e0: 6ff1 ecbe 56a3 e13e 0f43 4abe 802a 45bb
000003f0: 244d 44bd 2056 273e 3360 27bc 7f6b 30be
-0.3129564 0.34276158 0.062105834 -0.045433395 0.63224685 0.026631292 -0.71997595 -0.07368963
0.27449274 -0.22611631 0.35602 0.4769249 -0.542088 -0.078171864 0.12694243 -1.1550508
-0.07282484 -0.19643295 -0.21603319 -0.598837 -0.19025494 -0.059872907 0.6795787 -0.22970112
-0.1852226 0.23064923 0.39368278 -0.66393125 -0.6206648 -0.056722913 0.4344801 0.35125712
-0.6717631 -0.5898087 0.37050423 0.38778538 -0.8574887 0.034986187 -0.9032877 0.024007564
0.33913907 0.2553748 0.6424884 0.42140856 0.108023 -0.07255294 -0.054026462 -0.7004448
0.0069196015 0.52003837 0.001990931 -0.3886022 0.08468593 -0.79868174 0.30443963 -0.50118864
-0.3251818 -0.6549184 0.6353527 0.22081763 -0.0055796453 -0.006422162 -0.27898955 -0.26066962
-0.47552082 -0.025341205 -0.14083783 -0.036937583 0.47508943 -0.51302373 0.18174256 -0.026768202
0.19610444 0.038854726 -0.016768685 -0.021084078 -0.5537001 -0.16346166 0.2179123 -0.23886847
0.5460718 -0.15542115 -0.6368948 0.4145379 -0.59710234 0.18820167 -0.6179903 0.34103674
0.36410135 -0.09219036 -0.52365416 -0.9049835 0.5787681 -0.4472646 0.5018938 0.059054483
0.45084044 0.08000017 -0.0926849 0.48723647 -0.61151415 0.18335818 -0.65197396 0.2886819
-0.427375 0.26409096 -0.68516505 -0.3774933 -0.22147384 -0.59135485 0.030142298 0.0334111
0.41066036 -0.4300912 -0.08576017 -0.06473777 0.24605706 -0.25531125 -0.0074118003 -0.079974934
0.06150051 -0.66369504 -0.546083 0.21501009 -0.114362754 0.27222493 -0.43402082 -0.17994395
-0.5340096 0.118001364 0.51499104 0.51352656 -0.69045675 0.065164715 0.47272056 -0.8091271
0.4301551 -0.019985566 -0.4470087 0.5784435 0.03909589 -0.07706479 -0.65555406 -0.5836642
-0.26846665 -0.5869398 -0.66040075 0.122711055 -0.24906076 0.6814696 0.6114635 -0.18430556
0.06348292 0.08710172 -0.5445188 0.56973845 -0.08699944 -0.56011695 -0.4643629 0.07634237
0.31331694 0.03988926 -0.08095122 0.010334212 0.30477875 -0.832409 -0.06471706 -0.071834415
-0.6061014 0.034704033 0.3753611 -0.5301562 -0.3157887 -0.07829742 -0.3111043 0.36359927
0.080057025 -0.5170538 -0.47624412 -0.26973057 0.12247067 -1.1857606 -0.05229139 -0.022729047
-0.5459058 0.10084908 -0.48459595 0.45478386 0.24147631 -0.27143306 -0.70005256 0.35354656
-0.26771525 0.3553905 0.15074453 0.40497243 0.32747355 -0.34647378 0.1493589 0.41482124
-0.5851413 0.44106442 -0.58851004 0.6510512 0.59129345 -0.46780238 -0.4572165 -0.42157012
-0.8907601 0.08072438 0.39843848 0.5886663 -0.7064183 -0.19095768 -0.34612423 -0.08893727
-0.0030078217 -0.272696 -0.23093133 0.482727 0.4326254 -0.043108255 -0.033768322 0.17047626
0.22505412 -0.058412395 -0.59843236 -0.33401528 0.4007696 -0.6962441 0.41312125 -0.09418545
-0.21758749 -0.21170893 -0.39150932 -0.6265858 0.087550804 0.43861657 0.44196254 -0.2990551
0.12707601 0.45151487 -0.22377564 0.15426852 0.5484477 -0.4375769 -0.4884596 0.259815
-0.4627795 0.44069928 -0.19752143 -0.0030085146 -0.04792513 0.16341448 -0.010215807 -0.17228507

0.bias f4 [128]
00000000: db32 a53e bb9a 3d40 4088 943e fb83 c13f
00000010: 3464 98be 69cf b63e 8954 3bbe 4761 8cbf
00000020: a13b 363f 9beb 12bf 32dd 473f 7e0b b3be
00000030: ba85 a9bd 2f0e 903e 9944 55be 0e15 e03e
00000040: b694 c2be ac89 7cbe 7abd 54bf d19d c3bd
00000050: ddea 2ebb d018 bdbe 42a6 8e40 0eab 2b3f
00000060: a385 4cbe 27f3 fa3e 96a4 04bf d9ca 00bf
00000070: aaa2 7bbd f7c5 143e b4ce 9d3e 0cec 463d
00000080: dbf0 723f 6195 873f f4ea 70bf ea2f acbf
00000090: efbe adbe 2513 383e 01fa 573d 6538 5abf
000000a0: 6f83 19bf 377f 323d 3e14 0bbf 8832 11be
000000b0: 8611 b740 bade 9e3d efdb 12bf 0c39 643c
000000c0: 40c4 f93e 2cc0 823d d705 1139 6b57 fb3e
000000d0: 816b 51bf ded0 0abf a6d7 8abe 99f9 4c3c
000000e0: 12e6 4ebf ea12 5b40 3791 a43e f7b3 2cbf
000000f0: 43d7 673e 2934 553b 4f4d 223e 58c2 b5be
00000100: cc26 48bf 957f 023f 4078 113f ce31 013e
00000110: d752 303f 370a f33e a411 0e40 4f2f 343e
00000120: f574 b3be 47d1 c63e 40e6 3c3e d03e 72bf
00000130: 8376 1d40 a313 273e ec8a 0abf 2c0b 863e
00000140: 5f4c 043e 3da7 c53d cc67 dbbd 7a06 8abe
00000150: bc88 b6be 0abb 6ebf 8e03 2bbe 54a8 783e
00000160: 0402 00c0 fa5b d5bd b90d 0cbf 7d9c 213d
00000170: 1795 09bf 9ca8 513d 94d3 a7be efc6 61bf
00000180: a651 983e 9108 d4be c2a9 24bf fbe0 33bf
00000190: 1383 2cbf a8ab 503e c752 97bd ed95 89be
000001a0: 5de4 4ebf 4428 d63e becf 62be c0cb 19bf
000001b0: c857 21bd 7c78 35bf 425f 29bf 2459 e13e
000001c0: b4bc 303f 8a71 c43d 73df 363e 2c16 bc3e
000001d0: e9c7 c4be 320a 28bf ea37 c73e f500 d8bd
000001e0: a700 68bf d6d0 4dbf 8773 c8be 41cb cb3e
000001f0: dbfa ffbe d870 d5be 4da3 4dbe b5aa 263e
0.32265362 2.962569 0.290102 1.5118402 -0.2976395 0.35705116 -0.18293966 -1.0967187
0.71184736 -0.57390755 0.7807189 -0.34969705 -0.082774594 0.2813582 -0.20826949 0.43766063
-0.38004082 -0.24661893 -0.8310162 -0.095515855 -0.0026690282 -0.36932993 4.457795 0.67057884
-0.19972853 0.49013636 -0.5181364 -0.5030952 -0.061434425 0.14528643 0.30821764 0.048564956
0.94898766 1.0592462 -0.9410851 -1.3452122 -0.33934733 0.17976053 0.052728657 -0.852423
-0.59966177 0.043578353 -0.5432776 -0.14179432 5.720889 0.077573255 -0.5736684 0.013929617
0.4878254 0.0638431 0.00013830453 0.49090132 -0.8180466 -0.54224956 -0.27117652 0.012510681
-0.8081981 3.4230294 0.3214204 -0.67462105 0.2264071 0.003253231 0.15849803 -0.35499835
-0.781842 0.50975925 0.5682411 0.12616655 0.68876404 0.4746873 2.2198267 0.17596172
-0.3505017 0.3883154 0.18447208 -0.94627094 2.4603584 0.16316085 -0.5411823 0.26180398
0.12919758 0.09651039 -0.10713157 -0.26958066 -0.35651195 -0.9325415 -0.16700575 0.24282962
-2.000123 -0.10417934 -0.5470844 0.03945588 -0.5374312 0.05118619 -0.3277861 -0.88194174
0.29749793 -0.41412786 -0.6432153 -0.7026517 -0.67387503 0.20377982 -0.073888354 -0.26872197
-0.80817205 0.41827595 -0.2214956 -0.6007652 -0.039390355 -0.7088697 -0.66160977 0.4401332
0.6903794 0.09591968 0.17858677 0.36735666 -0.3843377 -0.65640557 0.38909847 -0.105470575
-0.90625995 -0.80396783 -0.3915064 0.39803508 -0.49996075 -0.41687655 -0.20081826 0.16276057

2.weight f4 [64, 128]
00000000: 0944 92bd f3f6 f43f e91c ee3c d9c9 88c0
00000010: 4cce a73d 3220 8dbd df62 033d d2e7 a0bd
00000020: 92d5 94bd 1642 b03d 79d6 74be d264 5e3d
00000030: af92 253c 2f4c 383d 097a b2bd 843c 84bd
00000040: b319 93bd cf60 1abd d1f0 12be 97e5 ffbc
00000050: 604d bebc 70f2 013d 78bf fb3f d4b4 583c
00000060: d15b 31bd a9f6 87bd 6a64 77bd 7605 acbd
00000070: 49d5 c9bc b42c 913c c630 30bd dd88 f53c
00000080: dc7e 89c0 57d5 d73e 73e3 fdbc 9176 92bc
00000090: 76f7 19bc f822 92bd 1bf1 89bd e587 b83c
000000a0: 4939 8a3c 97a3 22bd eb3d 0abe a6a6 8fbd
000000b0: 4ae0 cf3e e496 a7bd e1f8 72bc 4beb ae3d
000000c0: 62f5 12bd 561f 7ebd 008a 1abe 9afc 993d
000000d0: 2e2e b1bd db75 833d c543 14bd 5364 7dbd
000000e0: 3d4f 093c 7892 75c0 5122 9fba 4809 c1bc
000000f0: 1523 3d3d 3529 3fbe 4127 7d3c 816e 603d
00000100: e94c 9cbd 41e7 8e3d f29a 043f 6e2e 91bc
00000110: 1c0c 8e3d 7756 c9bc d8e5 fa3f 047d 433d
00000120: 27b2 ef3c 9479 4e40 d1dd 3abd c1be 943d
00000130: 7117 6abf 8026 0bbe 017d 97bb a599 0c40
00000140: f59b 39bc 8676 e4bd 0fc8 b63d ee68 2d3d
00000150: 63d4 acbc 3ba8 833d f294 f7bd 3163 cabd
00000160: 1bdf 1e3d 3b9a 0c3d 219f 613b 9cd8 90bc
00000170: 3903 3cbe a819 a5bd 4373 ee3b 89c7 40bd
00000180: cce5 78bd 1542 ef3c 62b0 edbc d472 aa3d
00000190: 4f05 a93d f285 12be ddf2 ac3d 50e6 92bd
000001a0: 65a7 2dbe 5475 863d e172 4f3d 283a c1bc
000001b0: ecc9 d63c b7a6 43bd 9a5b e6bb 057d 8bbd
000001c0: 4024 323d 9987 9abc 5f6c c93c 5f97 18bd
000001d0: c730 a9bd 5840 5bbd c92f ae3d 6079 08bc
000001e0: 34ef e73c 372c 193d c4f3 823d 4b87 f0bc
000001f0: 9ce9 7ebd 50c1 ddbb 8f96 ac3c 5424 933d
00000200: 2399 34bd 3b37 063e 1235 9b3d 3cb7 82bd
00000210: 3f5c 2a3d 2765 ad3d becb b83b d40e 2fbd
00000220: bd5c 08bd 2ac3 30bc f0a4 763d 92c8 13bc
00000230: 1921 b03d 8ba4 413d 4342 823d 0f20 5c3d
00000240: 5b10 f3bc a1fc 633c d4b3 ab3c 8ad1 79bc
00000250: 277e cdbc cf8c 3b3b a724 093f 6af6 ff3c
00000260: 94e8 793d 8221 973c 69d2 93bd 14fa c83c
00000270: ae92 ca3b e34c 403d b8a8 a1bc 2898 a33d
00000280: 9b0f 2cbe 46ed 353e 5d0e ecbb 3e1f 193e
00000290: d9dd 3cbd 20f7 efbb d5ba aa3d e1e2 8fbd
000002a0: 5bac d4bd 8986 013d 5f9a 8dbd 705f 27bd
000002b0: 01c9 08bb 854f 593d 9f53 a9bd a73a 36bd
000002c0: 26ae 8ebd 139e 60bd b4a5 a33d ea32 5ebd
000002d0: 2e9d a13b fa96 053d 4efd 9f3d 23d2 203d
000002e0: 09bf a3bd 7220 32bc e308 703d 54e6 913d
000002f0: 140c dabb 4781 103c f039 8c3d 376f 9d3d
00000300: f233 4fbd a633 e6bc ab4f 573e f36f d03c
00000310: 8649 46bd 0b15 4cbc 59f8 523f bb1b d93d
00000320: 45c9 5d3d 7878 78bd 2b88 a33d e476 cdbd
00000330: 89f9 0e3d 81c4 783d 5aae 343d 3aa5 0d3e
00000340: b91a 18bd 0bec e4bc c056 54bd ef5b 4abd
00000350: 6385 a8bd 50eb 0f3d 0905 24bd 292d 4b3c
00000360: d01e e5bd c749 60ba 4d21 4bbc 70b3 c1bc
00000370: 51fb 853d a658 0cbc b013 87bd 6321 79bd
00000380: e59d a93d 8dee 893d f051 8f3c 068b 99bd
00000390: 4322 b1bd a1ab 70bd 2221 8f3d 7ad3 fbbc
000003a0: 55c5 b2bd f7e4 7a3d 2ec7 7f3d b49f 893d
000003b0: 863c 8e3d 519e 843c a07a a7bd 4e79 01bd
000003c0: 820f abbd 88c6 933c 2662 2ebd fcdf 023e
000003d0: 7a7d 533d 9d06 2bbd cbe8 89bd e8d9 6ebd
000003e0: 1645 883c 2db2 44bd 5948 c23b 7bf5 433c
000003f0: 94c0 ea3c cf44 38bd 455a a53c 49ce b33d
-0.07141883 1.9137863 0.02906652 -4.2746396 0.08193645 -0.068909064 0.032076713 -0.07856716
-0.07267298 0.08606355 -0.2390994 0.05429537 0.010105773 0.04499453 -0.087146826 -0.06456855
-0.07182636 -0.03768998 -0.14349677 -0.031237407 -0.023230255 0.031725347 1.9667807 0.013226707
-0.043300454 -0.066388436 -0.060398497 -0.08399479 -0.024637835 0.017721511 -0.043015264 0.029972488
-4.296736 0.42154953 -0.030992245 -0.017878802 -0.009397378 -0.07135576 -0.0673544 0.022525737
0.016873019 -0.039706793 -0.13500182 -0.070142075 0.40600806 -0.08183077 -0.014829845 0.08540972
-0.035878547 -0.062041603 -0.15091705 0.07518883 -0.08651386 0.064189635 -0.036197443 -0.061863255
0.008380708 -3.8370647 -0.0012140964 -0.023563996 0.046176035 -0.18668063 0.015451253 0.054792885
-0.07631857 0.06977702 0.5179893 -0.017722335 0.069359034 -0.024577362 1.9601393 0.047726646
0.029259754 3.2261705 -0.045621697 0.07262946 -0.9144202 -0.13588905 -0.004623056 2.1968777
-0.011328687 -0.11155419 0.08924877 0.042336397 -0.021097368 0.06428572 -0.12088956 -0.098822005
0.03878699 0.034326773 0.0034427124 -0.017681412 -0.18360604 -0.08061534 0.007276924 -0.04706529
-0.060766026 0.029206315 -0.02901477 0.08322683 0.08252966 -0.14308909 0.0844476 -0.07172835
-0.16958387 0.06565347 0.050646666 -0.023587301 0.02621933 -0.047766414 -0.0070299627 -0.06810955
0.043491602 -0.018863486 0.024587808 -0.037253734 -0.08261257 -0.05352816 0.08505208 -0.008329719
0.028312303 0.037395682 0.06394151 -0.029361388 -0.062234506 -0.0067674294 0.021067886 0.071846634
-0.044091355 0.13107006 0.07578482 -0.063826054 0.04159188 0.08466559 0.0056395223 -0.04273875
-0.033291567 -0.010788718 0.06021589 -0.009019988 0.08600063 0.04727606 0.06360295 0.05374151
-0.029670885 0.013915212 0.020959772 -0.015247712 -0.025084568 0.0028617864 0.5357155 0.03124543
0.06101282 0.018448595 -0.07217867 0.024533309 0.0061820364 0.046948325 -0.019733772 0.07988006
-0.16802828 0.17766294 -0.0072038607 0.14953324 -0.046110008 -0.007323161 0.08336417 -0.070256956
-0.10384437 0.031622443 -0.069142096 -0.0408625 -0.002087176 0.05305435 -0.082679026 -0.04448953
-0.0696681 -0.05483825 0.0799059 -0.054247774 0.0049320674 0.032614686 0.07811986 0.039262902
-0.079954214 -0.010871993 0.058602225 0.0712401 -0.006654272 0.008819885 0.06846988 0.07687228
-0.05058665 -0.0281008 0.21026485 0.025444007 -0.04840996 -0.012456189 0.824102 0.10600992
0.054147024 -0.060661763 0.07984956 -0.10032442 0.034905944 0.060734276 0.044111587 0.1383256
-0.03713486 -0.027944585 -0.051840544 -0.04940408 -0.082285665 0.03513652 -0.040043864 0.012400904
-0.11187518 -0.00085559156 -0.012398076 -0.023645133 0.065420754 -0.008566057 -0.06595552 -0.060822856
0.08282069 0.06734953 0.017495126 -0.0749722 -0.08649113 -0.058757428 0.069887415 -0.030740488
-0.08729044 0.061253514 0.062445812 0.06719914 0.06945138 0.016188772 -0.08177686 -0.031609826
-0.08352567 0.018039003 -0.04257407 0.12780756 0.051633336 -0.041754354 -0.06733855 -0.05831328
0.016634505 -0.048021484 0.0059290347 0.011960383 0.028656282 -0.044987496 0.020184645 0.0877958

2.bias f4 [64]
00000000: a2e7 4f3c b492 693d d6a7 15be 498b 5cbd
00000010: 1c73 13be 65b5 dbbc 866a 17bd a463 cbbe
00000020: 9556 8cbd 206a 033d 97c8 88bd 605b c0bc
00000030: 607f 6bbb 4e5c f0bd 09db a63c 08dd 88bc
00000040: 277e 0dbb 50fb 47bd 4e78 fbbd 697b fa3d
00000050: 0af1 10be 3e5b 1cbd f115 0abe 210c 0ebe
00000060: c3a9 113c e360 f03a e485 c9bd 4fbf 4abd
00000070: 32f1 03be bc4c 08be 195f 57bd e8f0 37be
00000080: 5acf 0bbe 0026 1d3d 0337 44bd da43 bbbd
00000090: 5464 b8bc 4310 f83d 8b23 2abe d1a0 6b3b
000000a0: de50 3f3d b4d3 803e 9b50 89bd 18c5 ab3d
000000b0: 9bad 743d 79b5 923c 85e0 173f b925 b9bd
000000c0: aae9 1ebc 0f18 053e 708a 3d3d 9ff8 07bd
000000d0: c577 8d3d f612 b2bd f28b a1bd 1ed2 f63d
000000e0: 5295 1ebd 5953 b9bd cb50 1abe 2855 06be
000000f0: c35d 89bd 32ae f43c 5d79 eebd b6ef 8b3d
0.012689503 0.057024673 -0.14614806 -0.05384377 -0.1439938 -0.026819894 -0.036966823 -0.39724457
-0.06852452 0.03208363 -0.066788845 -0.023481071 -0.0035934076 -0.11736356 0.020368116 -0.016706958
-0.0021590085 -0.048823655 -0.12278806 0.1223057 -0.14154449 -0.038172953 -0.13484932 -0.13871814
0.008890572 0.0018339421 -0.09839991 -0.049498852 -0.12884977 -0.13310522 -0.052580927 -0.17962992
-0.13653317 0.038366318 -0.047904026 -0.09143801 -0.022508778 0.12112477 -0.16615121 0.0035954008
0.04670798 0.25161517 -0.067048274 0.08387202 0.059735876 0.017908799 0.59326965 -0.09040398
-0.009699265 0.12997459 0.046274602 -0.033196088 0.0690761 -0.08695023 -0.078880206 0.120517954
-0.03871662 -0.090491004 -0.15069883 -0.13118422 -0.06707337 0.029868219 -0.11644242 0.068328306

4.weight f4 [1, 64]
00000000: 64ce 5a3b 5625 0d3c a23f 523d 0030 bf3a
00000010: 7c99 9c3d aa73 e83c ae2a 1f3e f202 bebd
00000020: a566 e73d 4be1 a63c c0ca b8bc 00f1 7f3a
00000030: 92a1 543d 9ce3 d73c bc2e 163d 9848 2c3c
00000040: 702e 863c 8698 503d ba66 103d 2bd4 ba3d
00000050: c00c f53b c177 c83d b00c 3dbc c014 0a3d
00000060: 78a7 873d e27c b03d 274a b13d 867c 393d
00000070: 3896 8dbc 10a6 673d 9927 cb3d fc7e 083d
00000080: 26ab 193d 2b5d f43b 08e2 733d c4d7 233d
00000090: 73c1 8c3d ab60 973d e0c6 d5bb e7c9 0e3d
000000a0: e0cb 5f3d 2f75 303d 0f9a b13d 7911 e23d
000000b0: b77d b23d 2a98 f13d 19e8 233d 20ef ce3c
000000c0: 3825 9cbd a38b c13d 37ea af3d caca 01bd
000000d0: f0b0 ab3c f8ba 36bc 6a49 af3d 5eee fd3d
000000e0: 942b abbd 3e1e 633d a04f 583c e896 683c
000000f0: c01c e63b d859 a03d a86f 0e3d 9593 113c
0.0033387179 0.008614859 0.051330216 0.0014586449 0.07646462 0.028375465 0.15543625 -0.092779055
0.11298875 0.0203711 -0.022557616 0.000976339 0.051911898 0.02635365 0.036665663 0.010515355
0.016379565 0.050926708 0.035254218 0.09122499 0.0074783266 0.09788466 -0.0115386695 0.033711195
0.06623739 0.086175695 0.086567216 0.04528477 -0.017283544 0.056554854 0.09919662 0.033324227
0.037516735 0.0074573955 0.059541732 0.040000692 0.06872835 0.07391485 -0.006523952 0.034860518
0.05463779 0.043080505 0.086719625 0.11038489 0.087153845 0.11796601 0.040016267 0.025260508
-0.076242864 0.09450462 0.08589595 -0.031687535 0.020958394 -0.011152975 0.085589245 0.123989806
-0.08357921 0.055448763 0.013202578 0.014196135 0.0070224702 0.07829636 0.034774452 0.008885284
